…
onnexion/data/HEMI/data_3d/train/hemi_x11051_y21504_z21948.zarr']
18:58:04,713 models.models INFO Expected output shape pre-calculated from input shape torch.Size([1, 10, 72, 72, 72])
18:58:07,326 models.models INFO Model Summary stats with expected output shape====================================================================================================
Layer (type:depth-idx)                             Output Shape              Param #
====================================================================================================
LsdModel                                           [1, 10, 72, 72, 72]       --
├─UNet: 1-1                                        [1, 12, 72, 72, 72]       --
│    └─ModuleList: 2-7                             --                        (recursive)
│    │    └─ConvPass: 3-1                          [1, 12, 192, 192, 192]    4,236
│    └─ModuleList: 2-6                             --                        --
│    │    └─Downsample: 3-2                        [1, 12, 96, 96, 96]       --
│    └─ModuleList: 2-7                             --                        (recursive)
│    │    └─ConvPass: 3-3                          [1, 60, 92, 92, 92]       116,760
│    └─ModuleList: 2-6                             --                        --
│    │    └─Downsample: 3-4                        [1, 60, 46, 46, 46]       --
│    └─ModuleList: 2-7                             --                        (recursive)
│    │    └─ConvPass: 3-5                          [1, 300, 42, 42, 42]      2,916,600
│    └─ModuleList: 2-6                             --                        --
│    │    └─Downsample: 3-6                        [1, 300, 14, 14, 14]      --
│    └─ModuleList: 2-7                             --                        (recursive)
│    │    └─ConvPass: 3-7                          [1, 1500, 10, 10, 10]     72,903,000
│    └─ModuleList: 2-12                            --                        (recursive)
│    │    └─ModuleList: 3-12                       --                        (recursive)
│    └─ModuleList: 2-13                            --                        (recursive)
│    │    └─ModuleList: 3-13                       --                        (recursive)
│    └─ModuleList: 2-12                            --                        (recursive)
…
exion/data/HEMI/data_3d/train/hemi_x11051_y21504_z21948.zarr']
18:58:49,823 models.models INFO Expected output shape pre-calculated from input shape torch.Size([1, 11, 196, 196, 196])
18:59:11,995 models.models INFO Model Summary stats with expected output shape====================================================================================================
Layer (type:depth-idx)                             Output Shape              Param #
====================================================================================================
LsdModel                                           [1, 11, 196, 196, 196]    --
├─UNet: 1-1                                        [1, 12, 204, 204, 204]    --
│    └─ModuleList: 2-7                             --                        (recursive)
│    │    └─ConvPass: 3-1                          [1, 12, 324, 324, 324]    4,236
│    └─ModuleList: 2-6                             --                        --
│    │    └─Downsample: 3-2                        [1, 12, 162, 162, 162]    --
│    └─ModuleList: 2-7                             --                        (recursive)
│    │    └─ConvPass: 3-3                          [1, 60, 158, 158, 158]    116,760
│    └─ModuleList: 2-6                             --                        --
│    │    └─Downsample: 3-4                        [1, 60, 79, 79, 79]       --
│    └─ModuleList: 2-7                             --                        (recursive)
│    │    └─ConvPass: 3-5                          [1, 300, 75, 75, 75]      2,916,600
│    └─ModuleList: 2-6                             --                        --
│    │    └─Downsample: 3-6                        [1, 300, 25, 25, 25]      --
│    └─ModuleList: 2-7                             --                        (recursive)
│    │    └─ConvPass: 3-7                          [1, 1500, 21, 21, 21]     72,903,000
│    └─ModuleList: 2-12                            --                        (recursive)
│    │    └─ModuleList: 3-12                       --                        (recursive)
│    └─ModuleList: 2-13                            --                        (recursive)
│    │    └─ModuleList: 3-13                       --                        (recursive)
│    └─ModuleList: 2-12                            --                        (recursive)
…
====================================================================================================
18:59:14,997 models.models INFO Expected output shape pre-calculated from input shape torch.Size([1, 3, 72, 72, 72])
18:59:17,973 models.models INFO Model Summary stats with expected output shape====================================================================================================
Layer (type:depth-idx)                             Output Shape              Param #
====================================================================================================
AffModel                                           [1, 3, 72, 72, 72]        --
├─UNet: 1-1                                        [1, 12, 72, 72, 72]       --
│    └─ModuleList: 2-7                             --                        (recursive)
│    │    └─ConvPass: 3-1                          [1, 12, 192, 192, 192]    7,476
│    └─ModuleList: 2-6                             --                        --
│    │    └─Downsample: 3-2                        [1, 12, 96, 96, 96]       --
│    └─ModuleList: 2-7                             --                        (recursive)
│    │    └─ConvPass: 3-3                          [1, 60, 92, 92, 92]       116,760
│    └─ModuleList: 2-6                             --                        --
│    │    └─Downsample: 3-4                        [1, 60, 46, 46, 46]       --
│    └─ModuleList: 2-7                             --                        (recursive)
│    │    └─ConvPass: 3-5                          [1, 300, 42, 42, 42]      2,916,600
│    └─ModuleList: 2-6                             --                        --
│    │    └─Downsample: 3-6                        [1, 300, 14, 14, 14]      --
│    └─ModuleList: 2-7                             --                        (recursive)
│    │    └─ConvPass: 3-7                          [1, 1500, 10, 10, 10]     72,903,000
│    └─ModuleList: 2-12                            --                        (recursive)
│    │    └─ModuleList: 3-12                       --                        (recursive)
│    └─ModuleList: 2-13                            --                        (recursive)
│    │    └─ModuleList: 3-13                       --                        (recursive)
│    └─ModuleList: 2-12                            --                        (recursive)
…
