…
onnexion/data/HEMI/data_3d/train/hemi_x11051_y21504_z21948.zarr']
18:58:04,713 models.models INFO Expected output shape pre-calculated from input shape torch.Size([1, 10, 72, 72, 72])
18:58:07,326 models.models INFO Model Summary stats with expected output shape====================================================================================================
Layer (type:depth-idx)                             Output Shape              Param #
====================================================================================================
LsdModel                                           [1, 10, 72, 72, 72]       --
├─UNet: 1-1                                        [1, 12, 72, 72, 72]       --
│    └─ModuleList: 2-7                             --                        (recursive)
│    │    └─ConvPass: 3-1                          [1, 12, 192, 192, 192]    4,236
│    └─ModuleList: 2-6                             --                        --
│    │    └─Downsample: 3-2                        [1, 12, 96, 96, 96]       --
│    └─ModuleList: 2-7                             --                        (recursive)
│    │    └─ConvPass: 3-3                          [1, 60, 92, 92, 92]       116,760
│    └─ModuleList: 2-6                             --                        --
│    │    └─Downsample: 3-4                        [1, 60, 46, 46, 46]       --
│    └─ModuleList: 2-7                             --                        (recursive)
│    │    └─ConvPass: 3-5                          [1, 300, 42, 42, 42]      2,916,600
│    └─ModuleList: 2-6                             --                        --
│    │    └─Downsample: 3-6                        [1, 300, 14, 14, 14]      --
│    └─ModuleList: 2-7                             --                        (recursive)
│    │    └─ConvPass: 3-7                          [1, 1500, 10, 10, 10]     72,903,000
│    └─ModuleList: 2-12                            --                        (recursive)
│    │    └─ModuleList: 3-12                       --                        (recursive)
│    └─ModuleList: 2-13                            --                        (recursive)
│    │    └─ModuleList: 3-13                       --                        (recursive)
│    └─ModuleList: 2-12                            --                        (recursive)
…
